data.pth (torch, 17407 bytes, 6 tensors)

l1.weight f4 [8, 297]
000000 da 84 67 be 29 6b 3d be ec 91 d0 3f 67 c4 07 3e
       -0.22609273 -0.1849791 1.6294532 0.13258515
000010 26 ac c2 bd ac 22 22 3f c4 f2 ae 3d 3c 5c 2e be
       -0.09505491 0.63334155 0.085423976 -0.17027372
000020 e8 d9 29 bd 1a 99 73 be 35 c4 e6 bc cd fa a2 bd
       -0.041467577 -0.23788872 -0.02816973 -0.07957993
000030 96 62 5b 3e 23 8f 10 3c 30 8a ac 3d 59 5a 59 be
       0.21424326 0.008823189 0.08424795 -0.21225871
000040 dc 01 f1 bd 78 22 85 bf 2e ba 86 be 6e da 84 be
       -0.11767933 -1.0401144 -0.2631392 -0.259479
000050 05 60 47 bd e3 b1 a9 be 11 a0 d1 be 31 0a 9d bd
       -0.048675556 -0.3314353 -0.40942433 -0.076679595
000060 6b 49 ea bd e1 3c b8 bc b3 3b aa 3e 54 d6 a2 be
       -0.114397846 -0.022489967 0.33248672 -0.31804144
000070 11 ec 36 bf 3f 14 de be 84 29 c5 3e 30 01 3b be
       -0.7145396 -0.43374822 0.38508236 -0.18262172
000080 69 4d 50 bc 6e ec 3e be 3d 47 84 be 4b 19 74 be
       -0.0127137685 -0.18644878 -0.258356 -0.23837774
000090 f0 06 81 be f9 af 89 be d9 07 97 3e dc f0 18 3f
       -0.25200605 -0.2689207 0.29498175 0.5974252
0000a0 fc 32 47 be dd 89 63 3e db 1a 8a be 31 51 f5 3d
       -0.19453043 0.2222056 -0.26973614 0.11978377
0000b0 ca d6 68 3d ba c5 0f be b0 87 51 3d 1d 60 a8 be
       0.056845464 -0.1404027 0.051154792 -0.3288583
0000c0 b5 83 99 be 81 fb ab bc 0c e6 f3 3e cc 67 64 be
       -0.29983297 -0.02099395 0.4763645 -0.2230522
0000d0 3b 48 82 be 9d 50 e0 3f a8 ab a9 3e 92 e2 54 3f
       -0.25445732 1.7524601 0.33138776 0.8315822
0000e0 df 59 3a 3e 4c fa 5f 3e d2 46 9d 3f e6 38 59 3e
       0.18198346 0.21872824 1.2287238 0.21213111
0000f0 99 75 af bd 91 3c 91 3d f7 14 2e 3e 1f fc f3 be
       -0.08567352 0.0709163 0.17000185 -0.4765329
000100 b0 88 e1 be b3 8a 73 be 04 f0 54 be 62 0c de 3d
       -0.44049597 -0.23783378 -0.20794684 0.108422056
000110 c3 c8 0d be e0 49 32 bf 1b e2 66 be 73 76 90 3f
       -0.13846116 -0.69643974 -0.2254719 1.1286148
000120 23 cf 80 be 29 5e 63 3e da 4e 38 be 54 cf ce bd
       -0.25158033 0.22203888 -0.1799883 -0.100981385
000130 de db 48 3f 3b 2f 0c 3e 31 cf 07 3f 73 81 c2 3d
       0.7846049 0.13689892 0.53050524 0.09497347
000140 3e 31 2e bf 0d cb c1 be b5 b2 8e 3d 70 3a ae 3c
       -0.6804389 -0.37850228 0.069676794 0.0212681
000150 e5 3e fe bd e4 5c 17 be c2 50 b7 bc fd ce 40 be
       -0.1241434 -0.14781529 -0.022377376 -0.1882896
000160 6b 7c 6a 3e 7a 1d 93 be 59 ea 7a bf 3b a9 2e be
       0.22899024 -0.28733426 -0.98013836 -0.17056744
000170 23 9d 24 3f 50 4d 38 3e 9d ca 05 3f 04 90 f5 3d
       0.6430227 0.17998242 0.5226229 0.119903594
000180 22 58 c6 bf 4c 55 a5 bd 95 46 c9 be af 3a db be
       -1.5495646 -0.0807291 -0.39311662 -0.4281821
000190 95 f5 1c 3e 7e 46 2c 3e 98 b6 b9 be 36 13 5c be
       0.15328057 0.16823766 -0.3627212 -0.21491703
0001a0 19 b3 1d be ee 9d 06 bd 3a d5 20 3f 2b 72 50 3f
       -0.15400352 -0.032865457 0.6282536 0.81424206
0001b0 12 fa 2c 3d 9e 1c 8a 3e 9f 21 df 3f e9 ec e2 be
       0.042230673 0.26974958 1.7432135 -0.44321373
0001c0 fb 9e da be 08 9c 85 bd 75 37 5f be ff 85 11 be
       -0.42699417 -0.06523901 -0.21798499 -0.14211272
0001d0 21 17 05 be aa 0c 9c be ef a7 8b bd d1 94 84 bd
       -0.12997104 -0.30478412 -0.0681914 -0.06473697
0001e0 9a 24 90 3f cc 74 93 3f 03 cc 90 3f d4 0d 96 3f
       1.126117 1.1520019 1.131226 1.172297
0001f0 67 ba 33 bf 54 b0 be bc 4a a5 89 3f 73 fa 25 be
       -0.702063 -0.02327744 1.0753567 -0.1620882
000200 ad 51 85 3d e3 b6 b0 bd bc 63 7b 3e 9e 71 a1 3e
       0.06509719 -0.08628633 0.24549764 0.31531996
000210 fd 47 03 3d 05 f9 37 bf 54 50 a4 be dc bf 4a be
       0.032051075 -0.7186435 -0.32092535 -0.19799751
000220 46 80 4d bd 87 ac 06 3f f7 19 84 3e 48 e0 9d bc
       -0.05017116 0.52607006 0.2580106 -0.019271985
000230 0b a4 e4 be 5d 30 99 3e 40 f1 e8 be 5d 12 d6 bd
       -0.44656405 0.2991971 -0.4549656 -0.10452721
000240 63 03 40 3e 4e ea b1 bd aa 1a 7f 3d c3 81 7f be
       0.18751292 -0.08687268 0.06228129 -0.24951844
000250 03 15 34 bf 8b 03 34 bf 52 81 32 be 4f 0f 20 3f
       -0.7034456 -0.70317906 -0.17432144 0.6252336
000260 96 3f a1 bc 3e d5 75 be 8a 15 72 3d 65 81 02 be
       -0.01968364 -0.24007127 0.059102573 -0.12744673
000270 fd cc 26 3d 90 73 e9 bd 1c ed 79 be fa dc 33 bf
       0.040722836 -0.11398995 -0.24406856 -0.7025906
000280 ac 32 c6 be f9 42 70 3e 43 90 84 3e 78 a7 74 3b
       -0.38710535 0.23463048 0.25891313 0.0037331264
000290 8f 3e 96 3f 3a 2a ba be 49 c8 6f be c2 5a 11 3f
       1.1737841 -0.3636034 -0.23416246 0.5677911
0002a0 60 1d 87 be a5 ed c8 bd c0 58 2a 3f 68 ce 37 be
       -0.263896 -0.09810952 0.6654167 -0.17949831
0002b0 2e 08 9c be 7c 01 56 3f 7b 21 31 bf 28 bf 2f bf
       -0.3047499 0.83596015 -0.6919171 -0.68651056
0002c0 a7 19 d7 3e 49 67 59 be 54 d7 b3 3f bb c7 c6 3f
       0.4201176 -0.21230806 1.4050088 1.5529703
0002d0 0a b3 2f bf a5 25 2d bf 56 1e 32 bf 97 5e ad be
       -0.68632567 -0.67635566 -0.6957754 -0.3386123
0002e0 34 2a 87 bd bb 6b ec 3d 29 38 17 bf 27 79 e5 be
       -0.065998465 0.115439855 -0.5907007 -0.44818994
0002f0 a7 00 87 3e 40 90 f0 be 5a 4f 05 3f bd 43 94 be
       0.26367685 -0.46985054 0.52074206 -0.2895793
000300 9b a0 6c bc 5f 20 1a 3e c4 f4 ad bd cc e2 8c be
       -0.014442588 0.15051411 -0.08493951 -0.27516782
000310 23 5d 71 bd af 70 0b bf 9a 88 1f bf aa 7b 85 be
       -0.058926713 -0.54468817 -0.6231781 -0.2607091
000320 b2 94 3f be 4e dc 89 be 8f c5 9e be 28 bb 6a bd
       -0.18709067 -0.26925892 -0.310101 -0.057307392
000330 97 42 13 be b3 40 2b bf 44 01 da 3d 80 c7 2e 3f
       -0.14380871 -0.668956 0.10644773 0.6827316
000340 bd 30 24 3f 54 5e 2a 3d 40 c6 d2 be 98 34 38 3e
       0.6413687 0.041593865 -0.41166878 0.17988813
000350 35 17 81 bf 30 4d 0e 3d 2b e8 a8 be f8 26 79 be
       -1.0085207 0.03474158 -0.3298963 -0.24331272
000360 f4 fc 81 be be e4 bb 3d 25 d3 e9 be 02 ce f9 be
       -0.253883 0.091744885 -0.45668903 -0.48789984
000370 b3 9e af be 56 24 17 3f 62 b7 43 bf 6a 51 a0 3e
       -0.34300765 0.5903982 -0.76451695 0.31312114
000380 82 93 ca bd 52 e0 a3 3f b2 c9 52 bf 27 f6 a3 be
       -0.09891416 1.2802832 -0.8233901 -0.32023737
000390 a2 c0 67 be 9a 7d 6f 3f 93 80 2f bf a7 83 3d be
       -0.22632077 0.9355103 -0.68555564 -0.18507253
0003a0 56 c0 11 3f 96 ca 7c 3e 49 b7 83 3f 7b ed 9f bd
       0.56934106 0.24686655 1.0290309 -0.07808968
0003b0 d5 2d 4a bf 13 0c 49 bf 2e d4 94 bf 72 00 aa bd
       -0.78976184 -0.7853405 -1.1627252 -0.08300866
0003c0 7e ce 6d bf a2 2e ec be d2 42 ca be 75 ec e5 bd
       -0.9289321 -0.46129328 -0.39504105 -0.11226741
0003d0 8a 46 1f be e8 7a 8e bd a3 c5 e2 3e 73 2a 09 3f
       -0.15554252 -0.06957036 0.4429141 0.535804
0003e0 42 80 bd 3e ea bf e2 3e b9 41 c0 be 23 27 2f bf
       0.37011915 0.44287044 -0.37550142 -0.6841909
0003f0 22 23 5a be 3c 9d 31 40 0b 4a 34 3f 86 5f b3 3f
       -0.21302465 2.7752218 0.7042548 1.4013526

l1.bias f4 [8]
000000 7a 7c 31 3f 57 8d 85 3e e7 d8 f1 3d 72 8f 58 3e
       0.6933056 0.26084396 0.11808949 0.2114847
000010 95 a8 1f 3f 68 f8 e5 3e f9 50 68 3f 4b aa 67 3f
       0.6236661 0.4491608 0.90748554 0.9049422

l2.weight f4 [8, 8]
000000 f2 d7 c9 3f 9f db e4 3f ca 47 88 bf ba 52 4c bf
       1.5769026 1.7879523 -1.0646908 -0.7981373
000010 c7 19 1e 40 05 6b 0a c0 97 8d 19 40 d4 76 85 3f
       2.4703233 -2.162782 2.399267 1.0426888
000020 ee bd ae be b9 3d de 3f 95 c9 b3 3f e5 35 1c bd
       -0.3412928 1.7362586 1.4045893 -0.038137335
000030 0d da 14 bf 60 14 39 be 68 ce 9f bf 99 1a b1 3f
       -0.5814522 -0.18074179 -1.2484865 1.3836242
000040 5b e4 2f 3d 2b 59 59 bf 80 31 03 bf 24 ca c4 3f
       0.042942386 -0.84901685 -0.51247406 1.5374188
000050 6f ef 2a 3e 47 3d be 3f 24 31 32 bf f0 5b 81 3e
       0.16692899 1.486245 -0.6960623 0.25265455
000060 5b 18 89 bc bc 40 c9 3f b8 03 d6 3e 87 7a 81 3f
       -0.016735246 1.572288 0.41799712 1.0115517
000070 0d 70 02 3f 1d 83 56 3f 0b c1 0b bf 71 4b a3 bd
       0.50952226 0.83793813 -0.54591435 -0.07973374
000080 0a f5 3b c0 ed 3b 5c 40 16 1b 20 bf 49 7f 8f 3f
       -2.936831 3.4411576 -0.6254133 1.1210719
000090 3c 96 48 40 6a 36 08 40 81 ce 09 40 7e fd 4c 3f
       3.1341696 2.1283212 2.153229 0.800743
0000a0 35 ec a8 3e 90 5b 11 40 8e a4 38 3f f9 5d 0d c0
       0.32992712 2.2712135 0.7212609 -2.2088606
0000b0 16 3d 85 3e fe 51 c4 be 96 20 32 3e c5 b9 14 3f
       0.26023167 -0.38343805 0.17395243 0.5809596
0000c0 73 2a 04 c0 e0 77 b8 3e 1f c8 f2 be a5 d5 4e 3f
       -2.065091 0.36028957 -0.47418305 0.80794746
0000d0 38 1f f3 3e b8 4a 7f be 3b 10 16 40 d0 4d 57 40
       0.47484756 -0.24930847 2.3447406 3.3641243
0000e0 a2 8b e2 be 4c 0c a6 3f 54 97 4d 3f 85 04 8c 3f
       -0.44247156 1.2972503 0.80309033 1.0938879
0000f0 c1 8d 75 bf 6f 03 9b bd 2c ab 80 3f 7d 16 ba bc
       -0.95919424 -0.07569014 1.0052238 -0.022715801

l2.bias f4 [8]
000000 b0 8c 27 3f c9 4e 07 bf 7c ec d4 3e 24 4a 3a bf
       0.6544905 -0.5285459 0.41586673 -0.7276938
000010 c1 e1 ed 3d e8 ab 38 bf 58 f8 89 3f b9 1d 4a 3d
       0.11615325 -0.7213731 1.0778913 0.049344752

l3.weight f4 [31, 8]
000000 4e ca 0b bf b6 07 d2 bf 14 25 8e c0 8e 77 b6 bf
       -0.5460557 -1.6408603 -4.442026 -1.4255235
000010 73 c1 66 bf ae 4d 32 bf d2 12 73 bf 2f 7e d2 bf
       -0.9013893 -0.6964978 -0.9495059 -1.6444758
000020 fd 32 61 c0 aa 6e 22 c0 cf 6a 36 c0 d2 06 db bf
       -3.518737 -2.5380044 -2.850269 -1.7111456
000030 d6 3c a1 3e 54 29 d8 c0 21 09 29 bf 40 39 15 3f
       0.31491727 -6.755045 -0.66029555 0.5829048
000040 6b a1 43 be 14 b2 24 c0 11 19 48 c0 ba 33 41 c0
       -0.19104545 -2.573369 -3.12653 -3.0187821
000050 2e 57 25 bf e8 2e 09 bf bd 49 67 3b 99 87 97 c0
       -0.6458615 -0.535872 0.0035291754 -4.7353024
000060 df 87 be be 87 9b 8b c0 68 30 8b c0 58 5a e4 bf
       -0.37213036 -4.3627353 -4.349659 -1.7840071
000070 ae 48 b7 be a6 69 81 bf e2 cb da be 52 dd df bf
       -0.35797638 -1.0110366 -0.42733675 -1.7489417
000080 20 c2 fa bf f4 be 12 3e 22 cf 94 c0 c4 c1 25 bf
       -1.9590492 0.14330655 -4.650285 -0.6474879
000090 0f 55 bc bf 48 f5 fe 3e aa 3a e3 bf 80 0f 10 bf
       -1.4713458 0.4979651 -1.7752278 -0.5627365
0000a0 12 fb 36 bf 9a ed da bf 73 ac 34 c0 57 8c c0 bf
       -0.7147685 -1.710376 -2.8230255 -1.5042828
0000b0 37 7a 2c 3f fd 31 d7 bf 58 50 64 c0 7b 4a 02 c0
       0.67373985 -1.681213 -3.5674038 -2.035796
0000c0 68 ee 83 bf 4b ee 07 c0 79 49 22 c0 d2 97 0c c0
       -1.0307131 -2.1239192 -2.5357344 -2.1967664
0000d0 41 09 a3 bd 0b b6 71 c0 e9 0b 89 3c fe 70 8b c0
       -0.079607494 -3.776736 0.016729312 -4.357543
0000e0 94 22 32 3e 91 fa 49 be 55 cf b4 c0 27 6e 67 bf
       0.17396003 -0.1972449 -5.650309 -0.90402454
0000f0 cf 5c 46 c0 37 42 a8 3e 34 a4 38 bf f7 d9 ff 3d
       -3.0994146 0.32863018 -0.72125554 0.12492745
000100 f1 74 b4 bf cb 8e 02 bf 91 f4 2a c0 c2 16 25 c0
       -1.4098188 -0.50999135 -2.6711771 -2.579514
000110 fd 83 ba bf 60 58 00 c0 6e 91 95 3e 12 b2 98 bf
       -1.457153 -2.005394 0.29212517 -1.1929343
000120 30 56 88 bf 03 fe eb 3d 55 45 17 bd 7b de 03 3f
       -1.0651302 0.11523058 -0.036931355 0.51511353
000130 53 87 56 c0 49 02 f4 bb 3b 9c 9b bf 1d 3e 60 3d
       -3.3520095 -0.0074465615 -1.2157053 0.054746736
000140 34 1d 78 bf aa 1e db be d2 0a 48 c0 ce 2f e3 bf
       -0.9691956 -0.42796832 -3.1256604 -1.7748964
000150 aa b8 4a bf 28 ae 08 bf 8b e1 38 bf 05 ed 95 c0
       -0.79188025 -0.5339074 -0.7221915 -4.685183
000160 c1 ae 3f 3e 0a 54 a9 c0 84 0c 18 c0 01 cd 09 c0
       0.18719007 -5.2915087 -2.375764 -2.1531374
000170 c8 25 a9 3d 96 13 c3 bf ba 5f a2 bf 6a 1e 1a c0
       0.08259159 -1.5240352 -1.2685463 -2.4081063
000180 f8 f5 21 c0 44 d7 c3 c0 61 5d c5 bf 6a 06 62 c0
       -2.5306377 -6.1200275 -1.5419122 -3.5316415
000190 ce 8b 13 3f f1 32 e1 c0 9a 66 09 3f 8f d2 74 be
       0.576352 -7.0374684 0.5367218 -0.23908447
0001a0 44 e5 25 c0 50 33 49 bf 6b 17 6c c0 b1 27 9f bf
       -2.5921183 -0.7859392 -3.6889293 -1.2433988
0001b0 e2 72 10 bf 15 f1 fa bf 14 4b 62 bf 82 4c ff be
       -0.564253 -1.9604822 -0.8839581 -0.49863058
0001c0 c4 62 41 bf b4 8e c0 bf f1 dc 8b c0 87 bc aa c0
       -0.7554133 -1.504355 -4.3707204 -5.3355136
0001d0 b0 f1 82 bf a6 0e 52 bf 25 c0 83 3e fc 42 9d 3e
       -1.0230007 -0.820536 0.25732532 0.30715168
0001e0 15 6f 4e 3f 7a c0 e9 bf 2e d4 14 c0 5f 09 90 c0
       0.8063825 -1.8261864 -2.3254504 -4.501144
0001f0 b3 4e 8f c0 1d 9f b0 bf cc 49 38 3f 47 68 92 3f
       -4.478357 -1.3798558 0.71987605 1.1438073
000200 42 f4 59 bf 98 e6 28 3f 68 c0 45 c0 c5 5b 75 c0
       -0.8513833 0.6597686 -3.0898685 -3.8337262
000210 ac d2 36 c0 36 5b 73 3e 82 b8 6a 3f 77 98 46 c0
       -2.8566084 0.23765263 0.91687787 -3.1030557
000220 01 d7 94 3f e9 da 89 c0 19 f8 7e c0 0e 0e 59 c0
       1.1628114 -4.3079724 -3.9838927 -3.3914828
000230 73 9a 97 bf f7 3b 09 3f 84 ab d0 bf 13 9b 1a bf
       -1.1844009 0.53607124 -1.6302342 -0.60392874
000240 a9 dd 84 3f bc f6 bc bf 7b cf 4c c0 af 81 86 c0
       1.0380145 -1.4762797 -3.2001636 -4.2033305
000250 69 b3 5e c0 19 21 01 3f c7 94 56 3f 31 1f 9d c0
       -3.4797003 0.5044113 0.83820766 -4.9100575
000260 e3 12 d8 3e e1 fa 9e c0 fe 88 1b c0 c2 80 9e c0
       0.4220191 -4.968125 -2.4302363 -4.9532175
000270 4a 2c 9b be 8a b6 82 c0 ed 8d 14 3f f0 09 11 c0
       -0.30307227 -4.0847826 0.5802906 -2.2662315
000280 aa 71 11 3f 07 04 02 3f 39 fe 7a c0 67 5b 2e bf
       0.5681406 0.50787395 -3.9217665 -0.6810822
000290 17 33 19 c0 e8 d5 74 3e 03 a8 04 c0 4d 23 cf bf
       -2.3937433 0.23909724 -2.0727546 -1.6182648
0002a0 f4 8c 45 bf 15 0e 88 be 10 90 8e c0 dc 55 19 bf
       -0.771682 -0.26573244 -4.4550858 -0.59896636
0002b0 c8 e9 d1 bf 07 c8 9a bf c2 d4 85 bf 24 d5 f1 bd
       -1.6399469 -1.2092294 -1.0455554 -0.118082315
0002c0 a6 59 68 bf 19 66 69 c0 9d 95 61 c0 f1 34 ae bf
       -0.9076179 -3.6468565 -3.5247567 -1.3609906
0002d0 7e c8 00 3f 5f ac 45 c0 66 5e fb bf 57 68 81 be
       0.50305927 -3.0886457 -1.9638183 -0.25274917
0002e0 c6 03 d7 be 7e db dd bf ee ae 74 c0 7d 50 a0 bf
       -0.41995066 -1.7332609 -3.8231769 -1.2524563
0002f0 76 b1 74 bf 3b aa 92 c0 9d 7c 64 bd 5b 41 97 be
       -0.95583284 -4.58328 -0.055782903 -0.2954205
000300 e4 81 54 c0 28 8c 9b bf 5a a4 17 c0 16 1a 1e c0
       -3.320428 -1.2152147 -2.3694062 -2.4703422
000310 76 4d b1 be b6 bc b2 c0 d7 d4 3e 3f 89 7c fa bf
       -0.3462941 -5.585536 0.7454352 -1.9569255
000320 39 14 44 3c df ad 5f c0 bb d8 97 c0 17 2d 1a bf
       0.011967712 -3.4949872 -4.7452064 -0.6022505
000330 84 ba f4 bd f3 70 d6 be 2c a1 24 c0 b5 ac c6 bf
       -0.119496375 -0.41883048 -2.5723372 -1.5521456
000340 45 65 92 be 87 0c 7d bf 28 b3 5e c0 df 09 96 bf
       -0.28592888 -0.9884724 -3.4796848 -1.1721762
000350 00 d3 03 bf d9 1a 96 be 23 36 6f c0 b3 98 3b 3f
       -0.51493835 -0.29317358 -3.7376792 0.73279876
000360 bc 1b 89 bf 94 15 f3 3d fb 55 91 bd 62 0a b4 3e
       -1.0711589 0.1186935 -0.070964776 0.3516417
000370 83 ba 53 c0 f2 fe cd ba c9 68 9c bf 83 73 55 3d
       -3.3082588 -0.0015716238 -1.2219478 0.052112114
000380 d5 3d e7 3f 2c fc 75 c0 b4 56 ae bf 89 bb 05 c0
       1.8065745 -3.8435163 -1.362021 -2.0895712
000390 5c 61 05 c0 1f 74 1f c1 85 6f e0 be bb e5 1a c0
       -2.0840673 -9.96585 -0.43835083 -2.4202716
0003a0 f7 33 1d 3f da 41 14 c0 8f 6f 00 c0 f6 da 31 c0
       0.6140742 -2.3165193 -2.006809 -2.7789893
0003b0 02 9e 96 bf 53 fe 08 c0 79 79 5d 3e 9f 90 bf c0
       -1.176697 -2.1405227 0.2162837 -5.986404
0003c0 ac 95 39 3e 14 87 34 bf 1f 90 94 c0 70 64 20 bf
       0.18123502 -0.7051861 -4.642593 -0.62653255
0003d0 49 6e 22 bf 4b 5a 7e 3e 88 29 68 c0 f0 2b 12 c0
       -0.6344953 0.24839132 -3.6275349 -2.2839317

l3.bias f4 [31]
000000 5b 0f 97 bf 30 58 1f c0 70 3a b9 bf 15 37 73 bf
       -1.1801561 -2.4897575 -1.4470959 -0.95005924
000010 bb ed 86 bf d9 c1 45 c0 88 bb 21 c0 24 47 ac bd
       -1.05413 -3.0899565 -2.527071 -0.084120065
000020 f2 80 3f c0 30 ce b2 bd cc 90 1c c0 5a 02 1c c0
       -2.9922452 -0.087307334 -2.4463377 -2.4376435
000030 07 e6 ce bf 7a 0d 06 c0 98 18 41 bd b5 48 5c bf
       -1.6163949 -2.0945725 -0.047142595 -0.8604844
000040 48 ab 78 bf d9 e8 05 3f 58 b2 4e be 1c e5 bc be
       -0.97136354 0.5230842 -0.2018522 -0.36893547
000050 6e 79 10 c0 42 a6 de bf f6 5b d2 bf 47 72 a1 bf
       -2.2574115 -1.7394488 -1.6434314 -1.2613
000060 89 bf 43 c0 b8 94 73 bf ef 7d 21 c0 cb bb 7e 3e
       -3.0585654 -0.951488 -2.5233114 0.24876325
000070 2b e7 16 c0 27 3f 28 c0 50 57 80 bf
       -2.3578594 -2.6288545 -1.0026646
